RL_Final_Proj_chenz51/code/saved_policy_0/model.pt (torch_old, 57198 bytes, 12 tensors)

log_std f4 [6]
00000000: a8d1 04bf 313e 03bf 707d 05bf 5940 fabe
00000010: c90b 02bf 7cbb 07bf
-0.5188241 -0.5126677 -0.5214453 -0.48877218 -0.5079923 -0.53020453

weight f4 [64, 26]
00000000: 9ccb b9bc ee8c 1ebe 2ac6 5b3d fb4e 0dbe
00000010: 8046 04bb c39b a9bd 2480 103d 4246 173e
00000020: dc77 e6bd 88a9 633d 7e94 1cbc 1997 e13d
00000030: e4f9 b33d 9f0a 00bc 8544 333e d33e e43c
00000040: 0be3 b83d ee9f 36be 75e8 1bbe 945e 0e3e
00000050: 11f2 18be 528c 593c 494a 073e 0663 ddbc
00000060: d4bb 1bba 08df d43c 467a 2abe ce6d d03d
00000070: 0f51 93bd ce8c dcbc 7aed a13d ce50 533e
00000080: f8dd f93c f7fb 1abe b6e8 833d 22dd 19be
00000090: ab33 df3d 9e35 f73b fa19 ff3d 3d37 2d3c
000000a0: b8dd 4cbe efc1 1e3e ac5c 24be f40c 113e
000000b0: ce23 ee3d 962b 11be b5e3 c43d 0d3c 373e
000000c0: 8af5 f03d 2d50 883d fae0 413e 6ce3 183e
000000d0: 44bc 953d 777c fdbd 4dad 053e 0b59 44be
000000e0: a9d5 1f3e 08b3 95bc 4705 143e 0d42 91bd
000000f0: ca0e f7bc 885d 303e f787 22bd d85f b63d
00000100: ecab 603c 0e43 0a3e a65b bcbd da74 86bd
00000110: 6109 6b3d f782 b73d fc64 d0bc e73b 1e3d
00000120: 8c7d c2bc 4d2f 1e3e cf3c 1ebe 6210 31bb
00000130: 4e98 463c 02ff a43a 893e 50bd fc36 19bd
00000140: 22e8 a5bd 08e8 6fbc ede0 0e3e cabf eabd
00000150: 10b0 cc3c 30ab 733d 1c45 2ebd 0369 83bd
00000160: 1830 46be d112 cdbd e46a 293e 417c 353e
00000170: 794a 20be dccc 15bd 4be3 edbd 9830 41bd
00000180: 0526 0cbe 9225 2cbe 0216 533e cddc cf3d
00000190: 1cc2 06bd 062b bbbd 4f49 413e 686a 133e
000001a0: b484 f5bc c8c4 2abd ddb2 a6bd 3ab1 11be
000001b0: 1f78 40be ab59 b23b 8c59 32bd 6199 d93d
000001c0: c89d debc 602c babd 4cbf 893d 14be ecbc
000001d0: 57dd 443d ba2d 163d 6582 cabc 6568 0fbe
000001e0: 00c8 00be bd3f bb3c 5720 c23c 6c0a 933d
000001f0: a247 073e a69d f33d c507 44be 26a5 51be
00000200: f2cb 4c3d d62f 11be 13cf f13c f6cb ba3d
00000210: cc2d 103e 494d 34be a37f 153e 77c3 0a3d
00000220: 03cf 1b3e 3fef 843d 545d 6abe 5cf8 1dbe
00000230: 940e 36be a050 1cbc 43d3 32be 65d7 e53d
00000240: 141b 0fbe 1cb4 fbbd a04c e9bd 4a9c b0bd
00000250: 3821 593d 3588 3e3d b152 2ebe fd1a 96bd
00000260: d54a ec3d dc9e b8bd 359e 4f3e d63d c8bd
00000270: 5f10 173e 9e40 bd3d f01f f73b 19c5 033e
00000280: 54be 1a3d d3b1 2d3d 1471 3bbd 9add 50bd
00000290: 7d88 593c 5222 1a3e b8c8 47be 1a08 2d3e
000002a0: 0980 e8bd fb3b 133e 00bf 523d e971 a73d
000002b0: 5870 2bbe 4a0c 52be 3b2f 30be b50a b1ba
000002c0: 0080 5d3e 7eb6 263e 06f3 c4bd fad6 2bbe
000002d0: fbed 6e3d 15b7 1f3e 9c14 9f3d 42c1 df3d
000002e0: 9d59 1dbc d6c6 213e 8a59 ac3d 7a7c 133e
000002f0: 9002 123c ca32 cfbd 6028 203e 9898 b3bd
00000300: 8700 b23d 2913 31be 06e8 023e 3ef4 4fbd
00000310: 775e 0bbe 8564 783d a188 35be 2d61 0fbe
00000320: 137d 223e e3d5 11be 8899 c13d f273 02be
00000330: 48cd 303d b67a 283e 969c d03d 04b0 e4bd
00000340: 3d1f 093e a32f 313e 5949 59bd 44a7 1d3d
00000350: 9aed ad3d 1baf 5e3d 6b43 323e d6bc f83d
00000360: 3816 c2bc 5226 ef3d 2c49 a53d 0270 c1bd
00000370: 16b1 633c a338 d83d 434c 59be 69f3 54bb
00000380: e864 17bc f03f 05be 39dc 89bd 197c a6bc
00000390: e668 92bc 1d47 0a3e 0920 42be 877b cbbb
000003a0: c120 313d 78a7 013d e90f 413e e1a8 013e
000003b0: 5d5d c73d d808 0dbe f9aa 323e 413c a33d
000003c0: 900b c5bc 52da b6bd e95f 003e f42a abbd
000003d0: 727b 0d3e 4f09 9dbc 91ea c0bc 4a76 ac3d
000003e0: ff37 a8bd a8f6 31be aef8 093d daa9 a3bd
000003f0: 6594 41bd bb35 af3c 015e 43be 7fc8 243e
-0.022680096 -0.15483448 0.05365578 -0.1379966 -0.0020183623 -0.08281662 0.035278454 0.14772895
-0.1125333 0.0555816 -0.009556888 0.11015148 0.08787897 -0.007815032 0.17506607 0.027861988
0.0902768 -0.17834446 -0.15225394 0.13903266 -0.14936091 0.013278084 0.13211931 -0.027024757
-0.00059407693 0.025985256 -0.16648206 0.101771936 -0.07193195 -0.02692261 0.07906623 0.20636293
0.03050135 -0.1513518 0.064408705 -0.15025762 0.10898527 0.0075442335 0.124561265 0.010572252
-0.20006454 0.15503667 -0.16050977 0.14165097 0.11627923 -0.14176783 0.09613744 0.17894001
0.11765583 0.06655917 0.18933478 0.14930505 0.073112994 -0.123772554 0.1305439 -0.19174592
0.15608849 -0.018273845 0.14455138 -0.07092676 -0.03015842 0.1722318 -0.039680447 0.089049995
0.013712864 0.13502142 -0.09197168 -0.065652564 0.05738199 0.089605264 -0.025438778 0.038631346
-0.023741506 0.15447731 -0.15452884 -0.0027017822 0.012121273 0.0012588205 -0.05084089 -0.037405953
-0.081009164 -0.014642723 0.1395299 -0.11462362 0.024986297 0.05948943 -0.042546377 -0.06416514
-0.19354284 -0.100133546 0.16544682 0.1772318 -0.15653409 -0.036572322 -0.11615618 -0.047165483
-0.13686378 -0.16811207 0.20613864 0.10149536 -0.03289996 -0.091390654 0.18875621 0.1439606
-0.029970504 -0.04169157 -0.08139584 -0.14227763 -0.18795823 0.005442818 -0.04354243 0.10624958
-0.027174845 -0.09090495 0.0672594 -0.02889923 0.04806265 0.036664702 -0.02472038 -0.14004667
-0.12576294 0.022857541 0.023697061 0.07179722 0.1321092 0.118953034 -0.19143589 -0.20473155
0.049999185 -0.14178404 0.029517686 0.09120934 0.1407997 -0.17607607 0.14599471 0.033877816
0.15215687 0.06490945 -0.22887164 -0.15426773 -0.17778999 -0.009540707 -0.17463402 0.11222724
-0.13975173 -0.122902125 -0.11391568 -0.0862356 0.053010195 0.046516616 -0.17023732 -0.07329366
0.115377106 -0.09014675 0.20275195 -0.09777419 0.14752339 0.092408404 0.007541649 0.12868156
0.037779167 0.042405915 -0.045762137 -0.050992586 0.01327717 0.15052155 -0.19510162 0.16897622
-0.11352546 0.1437835 0.051451683 0.081760235 -0.16742074 -0.205125 -0.17205517 -0.0013507219
0.2163086 0.16280553 -0.096166655 -0.16781226 0.058332425 0.15597184 0.07767603 0.10925533
-0.009603885 0.15798506 0.08415516 0.14402953 0.008911744 -0.10117109 0.15640402 -0.08769339
0.08691507 -0.17292465 0.12783822 -0.050770037 -0.13610254 0.060642738 -0.17727901 -0.14001913
0.15868025 -0.14241748 0.09453112 -0.12739542 0.04316452 0.1645306 0.101861164 -0.11166385
0.13390823 0.17303328 -0.053048465 0.038489595 0.084925845 0.054366212 0.1740853 0.121453926
-0.023692235 0.11677231 0.08070597 -0.09445192 0.013897201 0.105576776 -0.21220498 -0.0032493717
-0.0092403665 -0.13012671 -0.06731457 -0.020322846 -0.017872285 0.1350369 -0.18957533 -0.006209794
0.043244127 0.03165385 0.18853725 0.12662078 0.097346045 -0.13772905 0.17448033 0.07970477
-0.024053365 -0.0892836 0.12536587 -0.08357802 0.13816622 -0.019169478 -0.02354935 0.08420999
-0.082138054 -0.17379248 0.033684425 -0.07991381 -0.04726066 0.021387925 -0.19078828 0.16092108

bias f4 [64]
00000000: 3e39 1ebd 7d5e 43be 2a22 483e fb36 3c3e
00000010: 37e8 10be 3d9a 30bd b072 393e e6f0 0c3e
00000020: 622d c1bd 7f71 eabd 4ec3 143e 9edc 28be
00000030: 8dee 3c3e f986 783d b95f 0abe 16db 2b3d
00000040: 5ece 18be 4ea2 18be 693c c9bd da85 b6bd
00000050: 8375 6e3d d3d0 373e 59ce 023e ba9a 133d
00000060: 2912 ad3d 8548 4cbe 6d59 05be 4426 a7bd
00000070: 3563 863c 109b 30be b232 8cbd 99b0 163e
00000080: 4528 0f3e b3be 823d 4187 8a3d 5ae1 b2bd
00000090: da0a 0f3e 2d59 39be 9fbc 783d 5dc4 463e
000000a0: d51b 243e 1550 1bbe 147c 30be ed48 18be
000000b0: 7cb8 a7bd 5fd4 da3b 6736 2d3e 3cd5 433e
000000c0: 130c 08be d334 87bc e455 12bd a7ed 47bc
000000d0: 1327 b53d 4b84 29be 6452 303c 2611 4b3e
000000e0: 7a4a f03d 3726 06be ba00 193d 45a0 56be
000000f0: 5e59 383d 0887 1b3d 6f54 163e bea1 56be
-0.03862881 -0.19079013 0.19544283 0.18380348 -0.14151083 -0.043115843 0.18110156 0.1376377
-0.09432484 -0.11447429 0.14527628 -0.16490409 0.18450375 0.060675595 -0.13513078 0.041956984
-0.14922473 -0.14905664 -0.098259754 -0.08912249 0.058217537 0.17950754 0.12774028 0.03603623
0.084507294 -0.19949539 -0.13022394 -0.081615955 0.016404727 -0.17246652 -0.06845607 0.14715804
0.13980205 0.06384029 0.06764079 -0.08734389 0.13968983 -0.18100424 0.060726758 0.19410844
0.16026242 -0.15167268 -0.17234832 -0.14871569 -0.081894845 0.0066781486 0.16915284 0.19124311
-0.13285856 -0.01650468 -0.035726443 -0.012202657 0.088453434 -0.16554372 0.010761831 0.1983076
0.11732955 -0.13100515 0.03735421 -0.20959575 0.045007102 0.037970573 0.14680646 -0.20960137

weight f4 [64, 64]
00000000: ef49 e73d 020d d2bd 9ada bdbd 5fd1 9c3d
00000010: e1bc b43d 55d5 f83c 07f5 13bd 1713 8b3d
00000020: a03a c23d 82cd ef3c 422a 633d f5d1 733b
00000030: 363a f73b 292b 9b3c 6426 bd3d 4c67 8e3d
00000040: a446 aabd 7209 18bd d4cd f83d f9b9 bc3d
00000050: 84fa cebd 6cc8 83bd 6dfd 4ebd 2444 0dbe
00000060: 0c0c 80bd bb4d a8bd 5eca 113d 0f13 b1bc
00000070: d264 d23d a926 9bbd 2161 f3bd 6082 893d
00000080: 2781 a4bd 7de4 a33d 44cc 393d 6091 21bd
00000090: 63ce 0c3d d7d0 ab3d aae9 983d 7e67 bdbd
000000a0: a8a1 f5bd a7e8 b8bd e1c8 8e3d 3a61 0a3e
000000b0: 704b 563d f064 fd3d 50e2 803d c0be a43d
000000c0: 56ee de3d fae1 ae3b 8029 8cbd 5b0d 853d
000000d0: c3aa a03b f579 e5b9 5003 853d 6045 c63c
000000e0: 84db d83d 001e ce3d f656 9e3d 272a 98bd
000000f0: 0cf4 e53c 4715 5e3b 446f 04bd a721 04be
00000100: 37b7 a33d 1067 033d faae cdbd ab46 e8bc
00000110: f04b 4fbd 564e 8d3c 8272 e9bd c8c4 9b3c
00000120: 2f25 15bd 1728 2abd ee91 1a3d 35b3 db3c
00000130: 06e0 233d f8a1 e53d ca12 bb3d ad5a 023d
00000140: db91 4ebd 0658 973d 3722 f1bc 18dd 7f3d
00000150: 0383 a2bc 0cd4 9ebd 003b 233d 121e c0bd
00000160: 0640 0bbe 08e6 a93c f8c3 c8bb c06a 3cbd
00000170: 08fb 84bd 17f1 f3bc 0ac3 aabd 5f4a 2e3d
00000180: a63d b2bd b909 c6bd ce56 033c 9681 92bc
00000190: 2b64 a63d e3a2 fabd 5dcc d9bd 6c6f c93d
000001a0: e64e 08be 78ef 62bc 5aa1 4bbc 0166 76bd
000001b0: faeb ae3c df8d 59bd 1440 1d3d 3248 04bd
000001c0: 4e60 cabb 4930 e2bd 5718 9b3d 8dc0 b9bc
000001d0: 31cf 8fbd 02fe 89bd 34d8 e13d 3963 8e3d
000001e0: 8770 08be 0f8a b53c 37a9 6abc 551d 6c3d
000001f0: abdb e3bd 161d 92bd 39b4 143c 4578 0d3e
00000200: eecf 84bd a7f2 c13d 7380 6bbd fb82 73bd
00000210: 85e9 01be ea8f f2bd 5f89 323d 344a c2bc
00000220: 1ad0 c4bd d540 0e3d b613 ee3c c050 b8bd
00000230: 8057 7ebd 31b6 ee3d 9cd6 e7bd a7f1 023e
00000240: 2d93 5d3c 6d9c 473d b428 9c3c fc0e 82bd
00000250: 4ab2 33bc e7ae e03c ef85 c9bd de2d a4bc
00000260: 9e41 a93d bb32 1bbc 97d3 02be 9704 23bc
00000270: 5bb2 a8bd 7774 ca3c 1cf2 d3bb 3f9f e63d
00000280: 9dba e5bd 3cf5 81bd 72e8 bebd d787 5f3d
00000290: 3d37 a5bd a804 d7bd 201d 563d 7781 07bc
000002a0: 138f 383c ca92 53bd 86ff bdbd e5e4 88bd
000002b0: cb74 893c f09e b1bd 85f4 4cbc 01c3 893d
000002c0: cb16 09be 209e c43d a25c cabd d165 453d
000002d0: 4ed1 debd 59fb 2abd 23c9 df3d 648c 6ebd
000002e0: 5025 e33b 32b7 483d 53a1 a43d 34f2 f6bd
000002f0: f868 113e 8a33 db3d a76d 813d e1b8 debd
00000300: 0e51 9cbd b5e3 98bd 2b1e 16bd 00fc 9c3a
00000310: 00c4 b0bd a3f7 743c e083 253d 7ac0 c5bd
00000320: cdb5 7c3d 1cb7 15ba 9734 383d c3c6 8bbd
00000330: 8a13 acbc cdab 04be 7345 2d3d 1579 d73c
00000340: 4d23 f1bc 40ec 353d 5ded 85bd e8e6 b03d
00000350: 6a58 ebbd 0943 e83d c9f0 06be b772 d3bc
00000360: d5fa 7e3d cd61 ad3d a0f0 693d 30a0 0d3d
00000370: d32a 833d 7319 0ebe d90a adbd b011 5c3d
00000380: 8fb8 ffba aa2b 593d d9d1 f7bd 2061 edbd
00000390: ada8 913c 1848 a93d fdc6 b0bd 394f bebd
000003a0: ee73 a4bd f5de 063e beb2 f13d dd3a 97bd
000003b0: dd50 32b9 260b 2ebd 1301 b0bd d928 143e
000003c0: ef03 b3bc ba4e 0fbc 760d 4cbd 9d64 95bd
000003d0: 5c44 98bd 439d c23d 4d92 cd3d cb40 7d3d
000003e0: ed6d 9bbc dc17 9f3c ccd3 d7bb ec31 91bd
000003f0: 0bc8 043e c52f 94bd 2faf cf3c 73c0 eb3d
0.112933986 -0.10256387 -0.092702106 0.07657122 0.08825088 0.030375162 -0.03612235 0.067907505
0.09483838 0.029272798 0.055460222 0.0037204002 0.007544781 0.018941479 0.09235838 0.06953296
-0.08314255 -0.037118383 0.121486336 0.09215159 -0.10106376 -0.06434712 -0.050534654 -0.13795525
-0.06252298 -0.08217951 0.035593383 -0.021615533 0.10273136 -0.07575733 -0.1188376 0.0671432
-0.08032446 0.08002565 0.04536082 -0.03944528 0.034376513 0.083894424 0.07466443 -0.09248255
-0.11993724 -0.0902875 0.06971908 0.13513651 0.052318037 0.12372768 0.06293166 0.08044195
0.10885303 0.005336997 -0.06843853 0.06496688 0.004903169 -0.0004376915 0.064947724 0.024203002
0.10588744 0.10064316 0.0773143 -0.07429915 0.028070472 0.0033887194 -0.032332674 -0.12903462
0.0799393 0.03208071 -0.1004314 -0.02835401 -0.05060953 0.017249268 -0.11398794 0.019014731
-0.036412414 -0.04154214 0.037736826 0.026818851 0.040008567 0.11212534 0.09134443 0.031824756
-0.050432067 0.07389836 -0.02943526 0.06246671 -0.019837862 -0.077552885 0.03985119 -0.093807355
-0.13598642 0.02073957 -0.006126877 -0.046000242 -0.06493193 -0.029778047 -0.08337982 0.042551395
-0.08703165 -0.09669823 0.008016301 -0.017884057 0.08124574 -0.122380994 -0.10634682 0.09835705
-0.13311347 -0.013851039 -0.012428606 -0.060155872 0.021352757 -0.053113814 0.038391188 -0.032295413
-0.006176031 -0.11044366 0.07573002 -0.022674823 -0.070219405 -0.06737901 0.110275656 0.06952519
-0.13324176 0.022160558 -0.0143225705 0.05764516 -0.11125883 -0.07134454 0.009076172 0.1381541
-0.06484972 0.094701104 -0.057495546 -0.059451085 -0.12686737 -0.11843856 0.04358804 -0.023717023
-0.09610005 0.034729797 0.029062133 -0.08999777 -0.062095165 0.11655844 -0.1132023 0.12787496
0.013523859 0.048733164 0.019062378 -0.06350514 -0.0109678 0.02742715 -0.09839999 -0.020041402
0.082644686 -0.009472544 -0.12776028 -0.009949825 -0.082371436 0.024713738 -0.0064680707 0.112608425
-0.11217234 -0.06345603 -0.09321679 0.054572906 -0.080671765 -0.10498935 0.05227387 -0.008270613
0.01126458 -0.05165366 -0.09277253 -0.06684283 0.016779324 -0.08672893 -0.01250947 0.06726647
-0.13387601 0.096004725 -0.098809496 0.048192803 -0.108797655 -0.04174361 0.10927036 -0.058239356
0.006931938 0.049002834 0.08038583 -0.12057915 0.14200199 0.1070319 0.06319743 -0.108751066
-0.076326475 -0.07465307 -0.036649864 0.0011976957 -0.08631134 0.014951619 0.04040897 -0.096558526
0.061696816 -0.00057111843 0.04497203 -0.0682502 -0.02100541 -0.12956162 0.04230256 0.026302854
-0.029435778 0.04441476 -0.06539414 0.08637792 -0.11491473 0.11340911 -0.1317779 -0.025811536
0.06225093 0.0846592 0.057114244 0.034576595 0.064046524 -0.13876896 -0.08449335 0.053727806
-0.0019509959 0.053020157 -0.12100572 -0.11590791 0.017780626 0.08265704 -0.08631704 -0.09292454
-0.08029924 0.13170989 0.118016705 -0.07384274 -0.00017005527 -0.0424911 -0.08593955 0.14468707
-0.021852462 -0.008746797 -0.049817525 -0.07294581 -0.074349135 0.095026515 0.1003767 0.06182937
-0.018973315 0.019420557 -0.0065865275 -0.070896 0.12966935 -0.07235674 0.025352089 0.11511316

bias f4 [64]
00000000: 4d17 f2bd 83d3 fd3b ea41 803d 8792 8a3d
00000010: f539 f3bd 45eb 19bd efcd 2fbd 250b 61bd
00000020: 04c0 69ba e615 43bd 4b28 95bc 1cfb af3c
00000030: 13ed 013d 0b8f fcbd 3858 153e 828f 03be
00000040: 1567 6dbd 2692 ae3d 0823 a0bd bcbf 953c
00000050: c6b4 863d 3090 7fbc b0a6 1f3d 3af9 133d
00000060: 4d7c 0bbe a9d1 ffbb 40d3 113c a7e1 2cbd
00000070: 4485 91bd b01c b63b 2863 9d3d 7081 e0bd
00000080: 38d0 dd3d e685 98bd d6e6 313d 0977 b93a
00000090: 13b8 2b3d 881f 7c3c 1383 87bd 836d c5bd
000000a0: b13a 06bd 042c bfbd 752e c03d 16ed 8abc
000000b0: 760f 473d c74f 04bd fca2 b9bc db47 f7bc
000000c0: 45bd dbbd 3426 9dbc 8d0a 7d3d 0ab7 473d
000000d0: 4bf5 ed3d b874 a83b cc43 8e3d 372f c63c
000000e0: ae7b 01be 32f4 3aba 1668 69bd b5b1 3dbd
000000f0: e8df 4cbd e2d6 04be 72cc cb3d 508c 65bd
-0.118208505 0.0077461614 0.06262572 0.06766229 -0.11876289 -0.037577886 -0.042921003 -0.05494227
-0.0008916857 -0.047628306 -0.01820769 0.021482043 0.031720232 -0.12331971 0.14584434 -0.12847713
-0.057959635 0.08523969 -0.07819182 0.018279903 0.065774485 -0.015598342 0.038977325 0.036126353
-0.13621636 -0.007806976 0.008900464 -0.042207386 -0.071054965 0.005557619 0.07684928 -0.10962188
0.1083073 -0.07447414 0.043433033 0.0014149855 0.041923594 0.015388377 -0.06616797 -0.09640028
-0.032770816 -0.09334567 0.09383861 -0.016958755 0.04859873 -0.032302644 -0.022660725 -0.03018563
-0.1072946 -0.019183256 0.06177764 0.048758544 0.116190515 0.005140867 0.06946525 0.024192436
-0.12644836 -0.0007131725 -0.05698403 -0.046312053 -0.05001822 -0.12972596 0.09951104 -0.056042016

weight f4 [6, 64]
00000000: c66d 14bc 8cd7 12bd 4807 e7bd 6022 15be
00000010: 1c59 92bc feeb a3bc a9fa 9abc c38e b0bd
00000020: 054b 0dbe 08ca e43d c130 803d 7784 fe3d
00000030: 31b6 913c cc0c eabd b104 b73c a172 f0bc
00000040: 6d11 87bd f0dc c93d d847 543d 8512 b7bc
00000050: 283c 383d 66a6 debd 1690 69bc 3c9e 0b3e
00000060: c7b6 ac3c 5ca6 a53c 63e3 893d 1e22 5bbb
00000070: 100e 063b d0d4 9dbc 8e23 6dbc f478 4fbc
00000080: bf5c f53d 5173 a03d df6a 953d d504 61bd
00000090: 177e 05be 65b9 aebd 5780 c83d 99f8 863c
000000a0: 1ab3 b43d f6f4 ee3d 0539 923c 0c05 a63d
000000b0: 7640 b7bb b728 333d 9d62 0e3d 3ebd 00bc
000000c0: 2aa7 e53d fb20 f2bd f5d1 933d a5a4 e9bd
000000d0: d218 f93a 0722 773c fcdc 57bc c7f9 263d
000000e0: 8a58 d63d 2b75 05be 651f 103b 4117 cfbd
000000f0: bec0 cdbd 9230 063e 69bc cf3d dbce fbbd
00000100: 02e1 e0bd 605b f03d 09f8 1ebe eddb 5bbd
00000110: afdf 9fbc bac5 ea3d 8fcf 1fbd b9f4 0abd
00000120: 251e e3bc 9d04 2bbc 84db 873d 2da4 70bd
00000130: c86f df3c 0d47 3ebd 9918 d1bd 5f6b cd3c
00000140: 078e a7bc ed48 c23d d2d5 94bb 8630 333d
00000150: 35b5 07be d4f3 573d d4a6 113e 6ac9 c43d
00000160: 491d 48bd 3d8f 18be 1c4e 4f3d 538e 9e3d
00000170: d253 d3bd cf2c 94bd 4e8a 383d 920e aabd
00000180: 0bcd 00be 7b5f 1c3c 9ee6 66bd a9b3 c13d
00000190: 7b05 0abc 7764 92bd 7985 d33c 76f4 a23d
000001a0: cd8d 2ebc 6b0d 993c 0081 c33d cb7e 413c
000001b0: 9856 11be 9086 c03b 1473 79bd be31 883d
000001c0: 81ca 073e 6c97 53bd a16c f0bd ace4 b6bc
000001d0: 0490 0bbd f10e dcbd d1a2 cd3d 2c3d e6bd
000001e0: 39ef 02bc 93f7 d4bc 6dfc cc3c 75d0 c9bd
000001f0: b707 01be ebef 843d 61e6 95bc c191 353a
00000200: aaca f5bb 4c2c a63d d924 11bd 541f 8a3d
00000210: 37a4 f53d d512 4a3d 1b3e da3d 52df b6bd
00000220: 50d8 b9bc 73ca 873d 248c fa3b 774c c43c
00000230: bfc8 7cbd 1cab e9bd 02a8 a7bd d6fe 37bc
00000240: 9592 043b 1496 e03d 8f75 a83d c019 cb3d
00000250: 5c08 9cbc 4c62 2abd a590 b93d 0ea0 17bd
00000260: 969e ac3d 01de 01be 989f 153d 168f f4bd
00000270: 8cb7 233d 99df e1bd 4a93 67bd 0823 cf3c
00000280: b3f1 b0bd 66c0 1ebc 8a12 acbd 8fb1 083d
00000290: 7256 c83c d32c 9dbd ef5a a83d 642c 8c3d
000002a0: a4b9 1abd 9acf a93d 09a6 a73d 6f17 4bbc
000002b0: 2ede 5a3d be81 e0bc 83f3 9c3d e4ff dcbd
000002c0: 0587 cebd d0bc b73c 1d0e 06be 6ef7 a53d
000002d0: 2bcf 85bc 5bd3 e0bd 1aa4 743a cc7d 8d3d
000002e0: 2cb3 063d cfe2 dbbd f31c 33bc b93c 50bc
000002f0: 7870 cc3d 74a7 04bd cb04 523d 3832 2b3b
00000300: 22b6 0bbe f0c5 be3d 4ccb c63d e91f c63c
00000310: 505c a93d 391d 9bbc 51b3 fdbd 2aca 49bd
00000320: 9709 193a d027 ddbd 7bfc cd3d ac16 b13d
00000330: ddea e3bd fbcd 14be 7a79 bebd 9bef 963d
00000340: 0c3a cf3d ccc3 cf38 b0e9 503d ddd2 1c3d
00000350: 11c1 813d 2f97 55bd 899f aabd 268d e23d
00000360: 0506 7b3d 9d77 db3d 985a d83d 63d3 ae3d
00000370: 2674 aabd 119d 2c3d d837 91bd 43cc 9e3d
00000380: de6f f03c 13ce d33d 0d34 f63c a50e 8a3d
00000390: 401a 28bd b808 083e ddc2 48bd b9c4 bcbd
000003a0: add4 363a 91e2 a7bc 48bf 88bd 3188 42bd
000003b0: 0aef f6bd 72a7 6a3d 0f77 183d e2d7 bebd
000003c0: 0cd3 2d3d 9bb6 bd3d 7853 86bd 7546 8a3c
000003d0: 7217 5fbd 3cd6 b1bd 7731 403d 8681 bcbd
000003e0: 09c2 fabd a7c6 ecbd b0a9 11bc 2385 70bd
000003f0: 482f 1dbd 8fea d9bd 11b4 c13d 14af 7abd
-0.009059375 -0.035850093 -0.11280686 -0.14563894 -0.017864756 -0.02000999 -0.018918352 -0.0862098
-0.13798149 0.11171347 0.06259299 0.124276094 0.017787071 -0.11428222 0.022341104 -0.029351534
-0.065951206 0.098565936 0.051826328 -0.022347698 0.044979244 -0.10871582 -0.014255544 0.1363458
0.021083249 0.020220928 0.06732824 -0.0033437083 0.002045516 -0.019266516 -0.014473809 -0.012663115
0.119805805 0.07834495 0.07295775 -0.05493625 -0.1303638 -0.08531455 0.09790104 0.016475962
0.088232234 0.11667816 0.017849455 0.08106431 -0.005592401 0.04374 0.034762014 -0.007857619
0.11213525 -0.11822697 0.072177805 -0.114083566 0.0019004589 0.015083796 -0.013175245 0.04076555
0.10466106 -0.13032977 0.002199137 -0.10111857 -0.10046528 0.13104466 0.10143358 -0.12295314
-0.10980417 0.117361784 -0.15524305 -0.053676534 -0.01951584 0.114634946 -0.039016303 -0.033924792
-0.027724335 -0.010438112 0.06633666 -0.05875032 0.027274981 -0.046454478 -0.1020977 0.025075613
-0.020453466 0.09486566 -0.004542091 0.043747447 -0.13252719 0.052722767 0.14223796 0.09608729
-0.048856054 -0.14898391 0.0506116 0.0774199 -0.10318722 -0.07235109 0.045053773 -0.0830356
-0.12578218 0.009544249 -0.056372277 0.094580956 -0.008424158 -0.071480684 0.02582048 0.079567835
-0.010653925 0.018683156 0.09546089 0.011810015 -0.14193189 0.005875416 -0.060900763 0.066501126
0.13260843 -0.05165808 -0.11739469 -0.022325836 -0.03407289 -0.10745037 0.100408204 -0.11242136
-0.007991605 -0.025996959 0.02502271 -0.09854213 -0.12600599 0.06491073 -0.01829833 0.0006926321
-0.007500966 0.08113918 -0.03543553 0.067442566 0.11994212 0.049334366 0.10656377 -0.08929314
-0.022686154 0.06630411 0.0076461006 0.023962243 -0.061714884 -0.1140959 -0.08186342 -0.011230191
0.0020228971 0.10966125 0.082255475 0.09917021 -0.019046955 -0.04159765 0.09060792 -0.037017874
0.08428685 -0.12682344 0.036529154 -0.11941354 0.039969966 -0.11028976 -0.05653695 0.025285259
-0.086398505 -0.009689426 -0.084019735 0.033372458 0.024455283 -0.07674565 0.08220469 0.06844404
-0.037774697 0.0829155 0.081859656 -0.012395724 0.053434543 -0.027405616 0.07663634 -0.10790995
-0.10084347 0.0224289 -0.13091321 0.08103834 -0.016334137 -0.10977813 0.00093323144 0.069087595
0.032885715 -0.1073662 -0.010932195 -0.01270979 0.09982389 -0.03238626 0.051274102 0.0026122462
-0.13643697 0.09315097 0.097067446 0.024185138 0.0826956 -0.018934833 -0.123877175 -0.049265064
0.0005837916 -0.10798609 0.100579225 0.086469024 -0.11128781 -0.145317 -0.093005136 0.0736992
0.101184934 9.906999e-05 0.05100411 0.038287032 0.063356526 -0.052146133 -0.0833121 0.11062078
0.061285038 0.10716174 0.105641544 0.085364126 -0.08322935 0.042141978 -0.070907295 0.077538036
0.029350217 0.1034204 0.030054117 0.067410745 -0.04104066 0.13284576 -0.04901396 -0.09217209
0.000697444 -0.020493777 -0.06677109 -0.047493163 -0.12057312 0.057288595 0.037222918 -0.0931852
0.042437598 0.09263345 -0.06558889 0.0168793 -0.05446572 -0.0868344 0.046922173 -0.09204392
-0.122440405 -0.115613274 -0.008890554 -0.05872072 -0.03837517 -0.106404416 0.09458173 -0.061202124

bias f4 [6]
00000000: 8923 663d 99c8 b8bd 28ec 57bd 92d5 993d
00000010: b53d f9bb d695 6e3d
0.056186233 -0.09022636 -0.05271545 0.075114384 -0.007606233 0.058248363

weight f4 [64, 26]
00000000: 324a 14be 6075 8bbc fe38 883c 5989 073e
00000010: b859 cdbc 6290 1a3d 992e 1a3e c903 23be
00000020: f549 f13c 8d42 f1bd 0c52 aa3b 657b efbc
00000030: 2767 5a3d 082e 533d 362a bb3d 0a71 d53d
00000040: cab9 233e 0a48 11be 0657 e83d 7b1b 81bd
00000050: 8a0f ec3d faf9 9a3d 2e74 ccbd fd51 0dbe
00000060: dce8 e3bd 1651 2b3b 8be8 e9bd 3d64 f5bd
00000070: 3f5f 1bbd 7acb 20be d391 1d3e ab5a a73d
00000080: 800f 1b3b 3642 1f3e 1e7c e93d 4aba fb3c
00000090: dc08 3bbe 1cc1 1ebe 63cc fcbc eb71 bc3c
000000a0: 8c6e 08be 15f2 5f3b 5f9a d9bd e453 ef3d
000000b0: 6e84 81b9 0bd2 f93c 6441 38be 63f4 26bd
000000c0: c948 cbbd 83e9 9f3d ccb2 15bd 7692 833d
000000d0: 5660 a1bd d8ff ea3c a65f 4b3d 3e82 313d
000000e0: 2422 28be 3700 c53d 4800 18bd 5c79 273e
000000f0: 785a 10be bd2a 21be 5a47 d93d 1c5b 31be
00000100: 66f1 07bd e420 053e b754 d73d 8251 fbbc
00000110: 7e27 22be 72f2 053e fd2e 143e fa82 cdbd
00000120: 14df 073e 6abb 823c 7cd2 57bd 6aa7 3b3e
00000130: ddbd 903d 377a ff3d 4391 f83d 65af 083e
00000140: a9ac 05be e67a 3cbe 0858 4abd f285 8a3c
00000150: 9002 3abd d3c3 c5bc 3aa5 1fbd acad 2539
00000160: dba4 3d3e 9619 f0bd 60e4 13be f3eb 26be
00000170: 7cfd 133e 2dbf ed3d c6c9 b9bc e7d6 8cbd
00000180: 70fa 983c 8c35 67bd 269c 4b3d e5f7 32bd
00000190: 397b bc3d c9ea 073d ed9b f63d 828e 153e
000001a0: 03c8 39be 76c4 ae3d 7908 0abe bb12 b03d
000001b0: cabb ae3d 20b9 2dbe 3fe1 a0bd 19f1 0e3d
000001c0: 2374 183e c83a cb3d 8cfb 5fbb dff0 7cbd
000001d0: 2f83 98bd 0c65 9ebd 47a7 e73d dd7a e13d
000001e0: 31f5 a0bd d708 94bd 4e92 afbd 3ba5 6bbd
000001f0: 036c f43d eb97 b43d 1ce9 3a3e e0e4 72bd
00000200: 166e 733d 1a12 3e3d 6119 f43d 6682 1cbe
00000210: f658 70bc 79f8 ec3d f45c 763d 2e8e 36be
00000220: ac70 2bbe 70f5 1c3e caa5 fdbd d115 0bbd
00000230: a9c5 343e 605b 98bd 3ed9 2a3b a9d7 b7bd
00000240: 8ba1 44be a5f7 cc3d c290 b3bd 577c 3abd
00000250: bae7 49bd 5267 3d3e bb9f 383e ae05 d33d
00000260: ac9c a3bd dff8 f6bd 8205 f1bd 79d3 94bd
00000270: f36a 2a3e c0e0 5e3c 4deb 90bb 68ef 0bbe
00000280: ae84 a13d cd2d 093e c645 94bd 574c 2dbd
00000290: 5bb9 51be 311e 8cbd e262 acbd 56ae 1ebe
000002a0: 8971 c93d 8201 0c3e c153 a73d 2e54 123e
000002b0: a61b 783a 9c1d 063e 622b 05bd dc46 333d
000002c0: 8063 e2bd b989 6e3d 7990 86bd eeaf 983c
000002d0: 8d9c 00bc 9657 ccbc 9b0e 053e 5195 1f3e
000002e0: d58d 21be 38ec 173e b0e7 32bd 48d2 fb3d
000002f0: 3067 26be 7068 26be 6042 ebbd a5da 51bc
00000300: b014 243e fe16 76ba 4460 a4bd 7312 583d
00000310: 9b19 ee3d 959c 143e 3e28 2bbe b030 203c
00000320: 98c5 083e 070b 8fbd 6d8c 873d e701 09be
00000330: f8ad 36be 98fc 72bd db5a 8b3d 0d39 1b3e
00000340: a2b9 813d cd23 ebbd 5cf5 833d 5b67 55bd
00000350: 33f0 043e 973d 173d 660a d83d 3b13 a6bd
00000360: 8ce6 63bd 2e0b f1bc d3a4 2dbe e8a0 23be
00000370: 73a6 ed3d 887d ecbd ab50 153e 95ac 683d
00000380: 0868 d33d beb0 13be fda6 f43c 1ef7 97bc
00000390: e0de bb3d 01dc f23d e84e 433e a476 71bd
000003a0: c4e5 153d dce7 75bd b9ed 0d3e 3984 2e3e
000003b0: 7ee3 fbbd 7b42 a23c 6970 0a3e 1e0c 423e
000003c0: 1337 31be 9f7e 34be 6704 503e e326 2c3d
000003d0: 845a 39be 3307 9a3d 6877 6e3d 9952 a3bc
000003e0: fd81 00be 8015 4b3e 2d60 88bd 72a3 243e
000003f0: 8139 49bc e5ec 24be dc94 35bd e0b3 64bd
-0.14481428 -0.017023742 0.016628738 0.13235988 -0.025067195 0.03773535 0.15056838 -0.15919413
0.02945421 -0.11780272 0.005197769 -0.029233644 0.05332103 0.05155757 0.091389105 0.10421951
0.15988842 -0.14187637 0.113447234 -0.063040696 0.11526401 0.075672105 -0.09983097 -0.13800807
-0.11128399 0.002614086 -0.11421307 -0.119820096 -0.03793263 -0.1570262 0.15387659 0.081715904
0.0023660362 0.15552601 0.114006266 0.030728478 -0.18265098 -0.15503353 -0.030859178 0.02300354
-0.1332342 0.0034171392 -0.10625147 0.11685923 -0.00024703465 0.030495664 -0.17993695 -0.04076041
-0.09925992 0.07808211 -0.036547467 0.064244196 -0.07879703 0.028686449 0.049651764 0.0433371
-0.16419274 0.096191816 -0.037109643 0.16354889 -0.14097011 -0.1573896 0.10609312 -0.17319912
-0.0331892 0.13000828 0.10514205 -0.030678514 -0.15835378 0.13080767 0.1447105 -0.100347474
0.13268691 0.015958507 -0.052690968 0.18325582 0.070674635 0.124744825 0.121370815 0.13348158
-0.13054146 -0.18406257 -0.04940036 0.016909573 -0.0454126 -0.024141228 -0.03897593 0.00015800324
0.18519919 -0.1172363 -0.14442587 -0.16300945 0.14452165 0.116087295 -0.02267922 -0.06876927
0.018674105 -0.05644755 0.04970946 -0.043693442 0.0920319 0.033182893 0.12041459 0.14605144
-0.18142705 0.08533566 -0.13479795 0.085973226 0.08531912 -0.16965151 -0.07855462 0.034897897
0.14888053 0.09923321 -0.0034177033 -0.06175315 -0.07446896 -0.07734117 0.113112025 0.110097624
-0.078592665 -0.072282486 -0.08572827 -0.057530623 0.11934664 0.088180386 0.18252987 -0.059300303
0.059431158 0.04640398 0.11918903 -0.15284118 -0.014669647 0.1157083 0.06014724 -0.17827675
-0.167422 0.15328002 -0.123851374 -0.033956353 0.17653526 -0.074393034 0.0026069428 -0.08976681
-0.19202249 0.10008172 -0.08767845 -0.045528736 -0.049293257 0.18496445 0.18029682 0.10303818
-0.07988867 -0.12059187 -0.11768629 -0.07266898 0.1664236 0.013603389 -0.0044225813 -0.13665545
0.07886635 0.13396378 -0.07239871 -0.04230913 -0.20480864 -0.06841696 -0.08417298 -0.15496191
0.09836108 0.1367245 0.08170272 0.14289925 0.0009464569 0.13097233 -0.032512076 0.04376875
-0.11054134 0.05823681 -0.06570525 0.018638577 -0.007849825 -0.024944108 0.12993853 0.15584303
-0.15776761 0.14836204 -0.043677986 0.12295967 -0.162503 -0.16250777 -0.114872694 -0.012808477
0.16023517 -0.00093875814 -0.08026174 0.05275197 0.116259776 0.14512856 -0.1671457 0.009777233
0.13356626 -0.06984525 0.06618581 -0.13379632 -0.17839801 -0.059322923 0.06804439 0.15158482
0.06334235 -0.11481438 0.06443283 -0.05210052 0.12982254 0.03692397 0.10548858 -0.08109137
-0.05563979 -0.029424276 -0.16957407 -0.1597935 0.11604013 -0.11547381 0.14581554 0.056805212
0.10322577 -0.1442289 0.029864782 -0.018550452 0.091733694 0.11858369 0.19073069 -0.058951035
0.036596075 -0.06003557 0.13860215 0.17042626 -0.1229925 0.019807091 0.13519444 0.18949935
-0.17306165 -0.17626427 0.2031418 0.042029273 -0.18100935 0.075209044 0.058219343 -0.019936847
-0.12549587 0.1983242 -0.06658969 0.16077974 -0.012281776 -0.16105993 -0.044331416 -0.055835605

bias f4 [64]
00000000: 5bbe 41be 36ba 3c3e 5fbd 903d 72cf 22bd
00000010: f1ba ce3d 97c0 173e 9404 183d ce03 603d
00000020: 87ba 42bd 303d bf39 6263 2dbb 30d8 c53c
00000030: 14c6 4e3b b9e2 bb3d 0fa5 76bd 91a0 adbd
00000040: bade c63d 191c 3b3e aec1 c53c 9335 12be
00000050: ee16 fcba 1f1d 583d 8a39 3abe 7129 1dbd
00000060: e9dd 44be c8c7 80bd c564 a6bb 0a08 e43d
00000070: 9451 1e3d 8a44 a5bd 0495 acbd f00e 173c
00000080: c9b6 6dbd 305a 443d 896f 39be f8b5 943d
00000090: 5707 e4bd 32f1 223e 5229 13be 52bb c4bd
000000a0: af72 edbd 000a 683c 9ad9 82bc 6787 23bc
000000b0: 37f0 01be ee89 673d 1c2c b83d 2190 82bb
000000c0: 32d0 2cbe a817 92bb 0cad 6abd 4f14 ee3d
000000d0: 70fd b9bd 3d26 423d f5ff 333e 0bb2 63bd
000000e0: 958a 8fbc a3b8 103e 3060 be3d 8295 e3bd
000000f0: 265f d73c 325e 31be 275b 763d 1518 863d
-0.18920271 0.18430409 0.0706737 -0.039748617 0.1009425 0.14819561 0.03711374 0.05469113
-0.047541168 0.00036475947 -0.0026456942 0.024150938 0.003155117 0.09174103 -0.060216006 -0.08477891
0.097104505 0.18272437 0.024140205 -0.1427825 -0.0019232908 0.052762147 -0.18186012 -0.0383696
-0.19225277 -0.06288105 -0.0050779306 0.11134346 0.038652018 -0.080697134 -0.0842686 0.00921987
-0.058035646 0.047937572 -0.18108954 0.0726127 -0.111342125 0.15912321 -0.14371231 -0.09606041
-0.1159414 0.01416254 -0.015972901 -0.009981013 -0.12689291 0.056528024 0.08992788 -0.0039844667
-0.16876295 -0.0044583865 -0.057293937 0.11624967 -0.090815425 0.047399748 0.17578109 -0.055589717
-0.017522136 0.14132933 0.0929569 -0.11112501 0.026290487 -0.17321089 0.060145523 0.06547562

weight f4 [64, 64]
00000000: 53f3 8cbc 61db cbbd 675d 55bc d15f 9e3d
00000010: fa1d c43d 9b74 f53d a2c9 53bc 4323 1c3e
00000020: 2e47 0b3d bdf1 093e c3d8 b6bd ecc3 5cbc
00000030: 35ec c53c 8201 8bbd ca7a be3d dcea f33c
00000040: 44b5 343c 8fc6 87bd d251 91bb a25c ccbd
00000050: 6461 62bd 5c5e fd3c e6c7 17bd 61ee 073e
00000060: 41a5 8bbd bb67 09be 5e27 f23c de11 11bd
00000070: 5830 643d e5f5 05be be15 41bd 470f 143e
00000080: c5d6 b23b f979 053d aa8a 94bd f91a 0c3e
00000090: 6f8b 53bd a098 003e 13a9 8dbc 8117 b13d
000000a0: 81cd b7bd 3ec9 6f3d afcf 08bd 5c62 ca3d
000000b0: a91d dabd 1dec 18be 012e ae3c 0e4c d23d
000000c0: 95be f73d 4285 73bd e63d bb3d deeb 30bd
000000d0: fe1e f1bc 7ec4 1cbd 91db abbd ba2f ddbd
000000e0: 1135 ea3c 9985 babd 317e 62bd e2f8 983d
000000f0: e831 d7bd f861 1f3d bbb0 a53d a006 0c3d
00000100: 7630 dabd b1cf a6bd d853 b33d 7a2a c8bd
00000110: 1f50 b1bd c25a a63d 195a c7bd 41da bbbd
00000120: 7bc1 ee3d 5f4f febd 9af7 033e bdb4 c8bd
00000130: c0b9 fcba 2946 f13d 3ff5 fa3d bb55 4f3c
00000140: f4a7 b73d 8671 88ba 9422 06bc dcaa c93d
00000150: 1302 1a3c 2ebf dc3c 9eab afbd 06c8 b03c
00000160: 9bc8 40bd ea3c 7f3d 34ff 5e3c d611 f23d
00000170: 855b 323d 8745 a8bc 826f 08be b410 353d
00000180: 01bf 083d 87d5 e63d af59 b4bd 91e0 a5bc
00000190: 6e22 8abd 4024 cd3b 0fde 1ebd a73d 583d
000001a0: e1c0 f23c fac6 92bd 3149 2f3d ae1a c5bd
000001b0: 1399 1b3d f101 f63d f6e4 d33c 90a8 7bbc
000001c0: 2786 803d 2530 9fbc ad27 0cbd 03fb b5bd
000001d0: 7aa7 9bbd 6aea 953d 2592 1abc ace8 5fbd
000001e0: 74ca 91bd 08a6 323c 626c 27bd c26b b73d
000001f0: bbfd 333c af4c e13d dfd8 71bd c230 583d
00000200: 4690 813d 6a19 b8bd 31e5 743d 4f84 e6bd
00000210: d0cc 5b3d 412e e03c 76f2 d2bc baf2 61bd
00000220: df57 0cbe 7878 7d3c 454d eb3c 4f6b 2e3b
00000230: 8d06 97bd 7a6d 433b a8b8 a83d 53ed 85bd
00000240: 6c5d 37bd 65a5 2ebc f2a5 54bc fe75 83bd
00000250: c9c3 513d 08d1 86bd 705e 213d 0deb cb3d
00000260: 00ea debc 4094 873d 5c6c a9bc b264 d5bd
00000270: 00c0 c6bd 953b 9cbd c3f1 bdbd a22c dc3d
00000280: aff7 983d 1aa6 fdbc db1b 033c e3dc 3b3c
00000290: 13c0 673d ff6d a83a eceb d5bd 5c6c 17bd
000002a0: 246a 3fbc 065d 883d 77ad 4f3d 1ab2 e3bd
000002b0: 2700 97bd ed6a 813c d7fd 9a3c 2591 103e
000002c0: abb6 c9bd 044b c1bd 1e03 27bd 7f1c fabd
000002d0: 5e90 f7bc e8cb e93d 7ef4 15bd 8242 a13d
000002e0: 1fb8 0ebe 050d 3cbb f29f 84bc 3b8d a0bd
000002f0: b711 ecbd aa7c 613d 3c2a c8bd c2c1 453d
00000300: 0aa3 523d 998f 063b 1f1b 42bc fb86 b5bc
00000310: eabd 01bd e1ec 643d 0fb4 313d b58b 233e
00000320: 4ab4 ddbd 9412 2d3d 8648 1ebd 393b 25bc
00000330: 49c2 a83d 408f 8abd 8f1b c93c f463 6b3d
00000340: faa7 16bd 5b83 963d 8844 a0bd 0b60 0fbd
00000350: 593b 9bbb 0132 31bd e60d cabd 7aa6 943d
00000360: e743 a83c 6847 a53d 3575 af3d e779 f1bd
00000370: fad4 0dbe 8e62 81bd 4926 4cbc aee1 46bd
00000380: ddb8 b6bd ccfe cabc 0445 0b3e f76a ecbc
00000390: c0ff 663d a2af 64bd fea3 d73d 2224 5e3d
000003a0: a1ee 99bd aa25 dfba c915 8fbd 54b2 0bbd
000003b0: 6dbb b2bd 18d5 693c bb04 393d 7a9e c83d
000003c0: f8a3 033e 2698 c03b 91b4 2abd 710b 4d3c
000003d0: 3d68 b5bd db4d 8c3d 4abb f93d db93 46bd
000003e0: 02a9 c1bd 5c33 2fbd 8eda 21bd 7d2f d1bd
000003f0: 9dee d3bd 90d6 dfbd 7ef4 ea3c 0896 cb3d
-0.01720587 -0.099539526 -0.013022757 0.07733119 0.0957603 0.11985131 -0.012926491 0.15247826
0.03400343 0.13471122 -0.08928063 -0.013474446 0.024160484 -0.06787397 0.09300764 0.029775076
0.011029545 -0.06629669 -0.0044348026 -0.09978606 -0.05526866 0.030928783 -0.037055872 0.13274528
-0.06818629 -0.13418476 0.029559787 -0.03541743 0.055710167 -0.13082083 -0.047139876 0.14458953
0.0054577314 0.032587025 -0.072530106 0.13682164 -0.051646646 0.12558222 -0.017292535 0.08647061
-0.08974744 0.05854153 -0.033401188 0.09882042 -0.106501885 -0.1493382 0.02126217 0.102684125
0.120968975 -0.059453256 0.091426656 -0.04319369 -0.029433724 -0.038273327 -0.08391488 -0.10800119
0.028589757 -0.09107513 -0.055296127 0.07469346 -0.10507566 0.03891179 0.08090349 0.034186006
-0.106537744 -0.08145083 0.08756226 -0.09773727 -0.0865786 0.081227794 -0.09733982 -0.09172488
0.11657997 -0.124174826 0.12887421 -0.09800098 -0.0019281432 0.1178096 0.12253808 0.012654717
0.089675814 -0.0010409809 -0.008186955 0.09847042 0.009399909 0.02694663 -0.08577655 0.021579754
-0.047066312 0.06231395 0.01361065 0.11819808 0.04354431 -0.020540966 -0.13323787 0.044205382
0.03338528 0.11271196 -0.08806168 -0.020248683 -0.06744848 0.006260425 -0.03878599 0.05279317
0.029632987 -0.07166858 0.04279441 -0.09624229 0.03798778 0.12012089 0.025866013 -0.015360013
0.062755875 -0.019432137 -0.034217525 -0.08885767 -0.07600303 0.073201016 -0.009434258 -0.054665253
-0.07118693 0.010903843 -0.040874846 0.089561 0.010985787 0.11000954 -0.059044715 0.052780874
0.06326346 -0.08989222 0.059788886 -0.112557046 0.05366212 0.027365806 -0.02575038 -0.055163123
-0.13705395 0.0154706165 0.028723368 0.0026614254 -0.07374296 0.0029819892 0.082383454 -0.065394066
-0.04476683 -0.01065955 -0.012979018 -0.064189896 0.051212106 -0.06582838 0.039396703 0.09956942
-0.02721119 0.06620073 -0.020681553 -0.10419597 -0.0970459 -0.07628552 -0.09274628 0.107507005
0.07469117 -0.030962992 0.008002247 0.011466238 0.05657966 0.0012850164 -0.10445389 -0.036968574
-0.011683021 0.06658368 0.05070254 -0.111179546 -0.07373076 0.015798056 0.018919868 0.14117868
-0.09849294 -0.09438136 -0.040774457 -0.122124664 -0.030220207 0.11415845 -0.03661012 0.078740135
-0.13937424 -0.0028694284 -0.01618955 -0.078394376 -0.11526816 0.05505053 -0.097736806 0.048280485
0.051425017 0.0020532368 -0.0118472865 -0.02215909 -0.031675257 0.055889968 0.043384608 0.15971263
-0.10825403 0.042254046 -0.038643382 -0.010084921 0.08240182 -0.06765604 0.024549274 0.05746837
-0.03678129 0.07349273 -0.07825571 -0.035003703 -0.0047372994 -0.043260578 -0.09865932 0.072583154
0.02054019 0.0807026 0.08567277 -0.11790829 -0.13850775 -0.06317626 -0.0124603 -0.04855507
-0.089219786 -0.0247797 0.13600546 -0.028859599 0.056396246 -0.05583156 0.10529326 0.054233678
-0.07516218 -0.0017024775 -0.06986577 -0.034105614 -0.08727155 0.014271997 0.045170527 0.09795852
0.12855518 0.0058775125 -0.041676108 0.012514935 -0.088577725 0.06850787 0.12193926 -0.04848085
-0.09456064 -0.04277359 -0.03951507 -0.10214136 -0.10348246 -0.109295964 0.028681036 0.099407256

bias f4 [64]
00000000: 2957 b23d d498 303c 6cbf 01be 3579 ef3d
00000010: 711b 0fbd 8325 59bd fd8b c3bd 979a b0bd
00000020: e104 c3bd 6ca4 8fbd 3258 5fbd edf2 cfbd
00000030: 22c8 873d 2c5c acbd cb3e 63bc 1867 aebd
00000040: aaab a4bd c983 1ebd 40bb cebd 4d59 b43d
00000050: d1bb b2bd c6f7 d9bb e5c6 eb3d 9549 0cbd
00000060: 6bd3 b5bd 248f 483d ea95 02be de74 103b
00000070: d009 74bd 7f7c c73d 8a0f 30bd 59ce 8e3c
00000080: 3631 853d 39a4 5ebd 8512 6c3d c9c4 09bd
00000090: 94ed c13c 9535 2bbd b815 79bd db58 d23d
000000a0: e73d 65bd cd26 91bd f45d 433d 2cf5 5fbd
000000b0: d271 b93d d723 8cbc 3d07 37bd 235f 9bbd
000000c0: d277 17bd 108c 973d 7497 873c 9a4b 56bd
000000d0: 58b7 a53c 360d 7b3d 7b12 813d e307 fabc
000000e0: fa1c ba3c c3bb a0bd 2dec bbbd ca2e 99bd
000000f0: 4e92 7dbd 978c 6abd f5c9 753d b83b a93d
0.08708031 0.010778625 -0.12670678 0.1169304 -0.03493828 -0.05301429 -0.09548185 -0.08623236
-0.09522415 -0.07013783 -0.05452747 -0.10153756 0.06629969 -0.08416018 -0.0138699515 -0.08515757
-0.08040555 -0.0386999 -0.10094309 0.08806095 -0.087272294 -0.0066518513 0.115125455 -0.03424986
-0.088782154 0.048964635 -0.127525 0.0022042315 -0.05957967 0.097405426 -0.04298357 0.017432379
0.06503527 -0.054355834 0.05763485 -0.033634935 0.023672856 -0.041799147 -0.06081173 0.10270854
-0.055967238 -0.07087479 0.047697023 -0.054677173 0.090549126 -0.017106934 -0.044684637 -0.07586505
-0.036979504 0.07399762 0.01655171 -0.052318193 0.020229027 0.061291896 0.06302353 -0.030521339
0.022718895 -0.07848313 -0.09175906 -0.074796274 -0.061907105 -0.057262983 0.060007054 0.082633436

weight f4 [1, 64]
00000000: f9d9 7c3d 1121 e6bc d37e a23d d86d e93c
00000010: af36 e73d 3df5 2f3d dd5b a73d ac14 c13b
00000020: 0208 98bd 2137 d8bd 3e64 6f3d da5b eebd
00000030: ef36 5a3d 710e d2bc cee8 153c 8103 113d
00000040: 6a49 383d 2f6f b5bd 8682 873d f3af 6dbd
00000050: 9cd9 8e3c 4c78 073d 5296 cfbc c63f 97bd
00000060: e61e 053e 9872 233d efe8 b83d e935 e93d
00000070: ed4e e2bd aa8e d33d 39e6 f23d be72 92bd
00000080: 60f9 aebd 2920 c7bc 17f7 ca3d c43c a6bd
00000090: 6ce5 6fbd cbaa bdbd 0c15 5e3d 7e86 1e3d
000000a0: a951 0b3d 98aa 9fbc 27b0 2d3d f53d d8bd
000000b0: 2ee7 05bd 6729 79bd d1bf 05be c3f0 053e
000000c0: bd6b c3bd 4765 afbd ebfa d4bd e1af c03d
000000d0: f8ea db3d 6351 223c ce70 06be e8b8 1a3e
000000e0: 5fd6 d53c 6dd0 7abd d2be 203e f77f c3bd
000000f0: 021b a6bd 6b71 6cbd 236e 803d 2f89 4fbc
0.061731312 -0.02809194 0.07934346 0.02849476 0.11289727 0.042958487 0.081718184 0.005892357
-0.07423402 -0.1055739 0.058445208 -0.11638613 0.053275045 -0.025641652 0.009149743 0.035403732
0.044991888 -0.08859097 0.06616692 -0.058029126 0.017437749 0.03307371 -0.025340233 -0.07385211
0.13000068 0.039904207 0.090288036 0.11387236 -0.1105021 0.103299454 0.11860318 -0.071507916
-0.08543658 -0.024307327 0.0991041 -0.08117059 -0.058568403 -0.09261092 0.05421929 0.03870248
0.034013424 -0.019490525 0.04240432 -0.10558692 -0.032691173 -0.0608305 -0.13061453 0.13080125
-0.09542034 -0.08564239 -0.10399421 0.09408546 0.10738176 0.009907099 -0.13128969 0.15109599
0.026103197 -0.061233927 0.15697792 -0.09545892 -0.0811062 -0.05772535 0.06271007 -0.012666984
